Week 12/bestMLPModel.pth (torch, 792248 bytes, 4 tensors)

fc1.weight f4 [256, 768]
0	0xbc0a80e2	-0.00845358
1	0x3d07c5b4	0.03314753
2	0xbc018916	-0.007906219
3	0x3bee999a	0.0072814943
4	0xbc8fea7d	-0.017567867
5	0x3cad9a4b	0.021191737
6	0x3d024b24	0.03180994
7	0xbcd8dce9	-0.026472526
8	0x3d0077f9	0.031364415
9	0x3bdd4cb6	0.0067535294
10	0x3cda64f5	0.026659468
11	0x3ba0228a	0.00488693
12	0x3c8e8952	0.017399464
13	0xbba6f235	-0.0050947913
14	0x3ce3e05d	0.027816946
15	0x3baec56f	0.0053335945
16	0xbc89ffdb	-0.016845634
17	0x3c16b295	0.009197851
18	0xbc8831fe	-0.0166254
19	0xbb8aaa3c	-0.0042317193
20	0xbc701f9e	-0.014655976
21	0x3cc4183c	0.023937337
22	0xbce95728	-0.028483942
23	0xbc8846b5	-0.016635278
24	0xbc26f11c	-0.010189321
25	0xbcb1bcf7	-0.02169655
26	0x3b5f3321	0.0034057575
27	0xbd11fb0a	-0.0356398
28	0x3d057b25	0.032588143
29	0xbcfb1b0b	-0.030652544
30	0x3ce436c0	0.027858138
31	0x3bc4c6b6	0.0060051335
32	0xbc3ff7ad	-0.011716765
33	0x3cb6ab07	0.022298349
34	0x3bb847b0	0.00562378
35	0x3ceed630	0.029154867
36	0x3b8142d5	0.0039447346
37	0xbc3a7363	-0.011380049
38	0x3c1ed8fb	0.009695287
39	0xbc2052b6	-0.009785345
40	0x3c78d054	0.015186388
41	0x3d03f5ea	0.032216944
42	0x3caae057	0.020858927
43	0xbc813acb	-0.015775105
44	0x3caaa430	0.020830244
45	0x3bd39094	0.006456444
46	0x3c961e23	0.018324917
47	0xbcb42bf6	-0.021993618
48	0xbd124f64	-0.035720244
49	0xbc646b3e	-0.013941584
50	0xbce2bc09	-0.027677553
51	0x3cf28dd5	0.029608646
52	0x3c2a493a	0.010393435
53	0x3c74e2c4	0.014946643
54	0x3c3af9c8	0.011412092
55	0xba248dc9	-0.0006277231
56	0x3ce75774	0.028239943
57	0xbcd207ba	-0.02563845
58	0x3b14e5f7	0.0022720078
59	0xbcc9c2db	-0.024629047
60	0x3c364cbd	0.011126694
61	0xbc4b99e2	-0.012426825
62	0x3c3527c5	0.011056845
63	0xbbf65883	-0.0075178756
64	0x3cf52bc6	0.0299281
65	0xbcaf3465	-0.021387288
66	0xbcb04c18	-0.02152066
67	0xbcb04ed1	-0.021521958
68	0x3d04f06c	0.032455847
69	0x3c450531	0.0120251635
70	0x3d0e38e6	0.03472223
71	0xbcf3f454	-0.02977959
72	0xbd1299d7	-0.035791244
73	0xbce744f3	-0.02823112
74	0xbcc6d961	-0.024273576
75	0x3c6f7662	0.014615627
76	0x3c53b264	0.01292095
77	0x3cf59fc0	0.029983401
78	0xbc98a835	-0.018634895
79	0xbcc9842b	-0.024599155
80	0x3c9cd736	0.01914559
81	0xbc6ef7e8	-0.014585473
82	0x3cb368a1	0.021900477
83	0xbc0c4b31	-0.008562849
84	0x3ca91943	0.020641929
85	0xbce5aca1	-0.028036417
86	0xbc952d18	-0.018209979
87	0x3c343eb7	0.0110012805
88	0x3bf9f89a	0.0076285126
89	0xbc16bbba	-0.009200031
90	0x3cb0333b	0.021508804
91	0x3cc8f431	0.024530502
92	0xbcd65d19	-0.02616744
93	0xbc9dd02f	-0.019264309
94	0x3d07561c	0.033041105
95	0xbc477e0a	-0.012176046
96	0xbc5197ab	-0.012792508
97	0xbd0f0319	-0.034915064
98	0xbca94881	-0.020664455
99	0x3c13af83	0.009014013
100	0xbb9c120c	-0.0047628935
101	0xbcd69306	-0.026193153
102	0x3a5de251	0.0008464205
103	0xbcc9ebd2	-0.02464858
104	0xbcfac9f4	-0.030613877
105	0xbca2c718	-0.019870326
106	0xbd015b99	-0.031581495
107	0xbcbc38ce	-0.022976305
108	0x3d13be6d	0.036070276
109	0x3bdf540a	0.006815438
110	0x3c362fa3	0.011119756
111	0xbd09da30	-0.033655345
112	0xbcc22500	-0.023699284
113	0xbc44c95d	-0.012010899
114	0x3bb8e532	0.0056425566
115	0xbd020dc8	-0.031751424
116	0xbc7ebc2a	-0.0155477915
117	0xbcb0f7eb	-0.021602591
118	0x38d1b6a5	9.999917e-05
119	0xbc5bfd6a	-0.013427118
120	0xbb23df5a	-0.0025004954
121	0xbcc84f42	-0.024451856
122	0xbccae694	-0.024768151
123	0xbcac749d	-0.0210517
124	0xbc4a5e58	-0.012351595
125	0xbce95066	-0.02848072
126	0x3cf7dac0	0.030255675
127	0xbbeaaaa1	-0.007161454
128	0x3cfe560e	0.031046893
129	0x3c38359c	0.01124325
130	0xbcfa50e6	-0.030556154
131	0x3ccc9163	0.02497167
132	0xbc22aade	-0.009928433
133	0xbc629ffb	-0.013832088
134	0xbcf55f21	-0.029952588
135	0xbd12f048	-0.03587368
136	0x3c292688	0.010324128
137	0xbc01253e	-0.007882414
138	0x3c662ba1	0.014048488
139	0xbcf29742	-0.029613141
140	0x3cdb76eb	0.026790103
141	0xbcd8fd1d	-0.026487881
142	0xbbcc2bd8	-0.0062308125
143	0x3bf6f866	0.0075369356
144	0x3c989b13	0.018628633
145	0x3ceea4c5	0.029131303
146	0x3d06a42c	0.03287141
147	0xbcea63f3	-0.028612113
148	0x3c14c991	0.00908126
149	0xbc7e4b18	-0.015520833
150	0xbb819315	-0.003954301
151	0xbcdd4194	-0.02700881
152	0x3d06a05d	0.032867778
153	0xbcd8f54d	-0.026484156
154	0x3c9dfc4e	0.019285347
155	0x3c4fc600	0.012681484
156	0x3c401dba	0.011725837
157	0xbc9fd11b	-0.019508889
158	0x3d065834	0.03279896
159	0x3c01eafc	0.00792956
160	0x3b981b10	0.004641898
161	0xbd02403d	-0.031799544
162	0x3c782e87	0.015147812
163	0xbbb162e8	-0.005413402
164	0xbc876c4e	-0.016531136
165	0x3cfde850	0.030994564
166	0x3c03cf0e	0.008044971
167	0xbca38ce4	-0.019964643
168	0xbc959dc9	-0.018263714
169	0xbae1de35	-0.001723236
170	0x3ca50daf	0.020148126
171	0xbc1712c3	-0.009220782
172	0xbca8a9f1	-0.020588847
173	0xbc4a745b	-0.012356843
174	0xbcdcd67b	-0.026957741
175	0x3c52d7ef	0.012868865
176	0x3ce4cf12	0.02793077
177	0xbd0b257e	-0.033971302
178	0x3c094ee3	0.008380624
179	0x3c98b4cd	0.0186409
180	0x3bd66801	0.00654316
181	0xbc528b13	-0.012850541
182	0x3c9a49b0	0.018833965
183	0x3c9b57ec	0.018962823
184	0x3c5d117a	0.013492936
185	0xbbcfc67c	-0.0063408
186	0xbc1c8d62	-0.009555193
187	0x3b7cfdc8	0.0038603414
188	0xbbd0e0cf	-0.0063744555
189	0xbc302e22	-0.010753186
190	0x3cbcf3a2	0.023065392
191	0x3cfe0a97	0.031010909
192	0xbb6a1c91	-0.0035722593
193	0xbc045e8c	-0.008079182
194	0x3a0a086f	0.0005265539
195	0xbb0d331b	-0.0021545354
196	0x3c0e21fc	0.008675095
197	0x3c25ad0d	0.010112059
198	0xbd063deb	-0.032773893
199	0xbc5a2d76	-0.013316503
200	0x3cf8efb0	0.03038773
201	0x3c664eb8	0.014056854
202	0xbaeb3dd1	-0.00179475
203	0xbcb23890	-0.021755487
204	0xbcb4da04	-0.022076614
205	0xbd046555	-0.0323232
206	0xbc40b60e	-0.011762155
207	0x3c47a729	0.01218585
208	0x3cbc7bab	0.023008188
209	0x3c887ab2	0.016660068
210	0xbd02a5fe	-0.031896584
211	0xbcb1c3c7	-0.0216998
212	0xbbba9ac1	-0.0056947176
213	0x3d0ef9d3	0.03490622
214	0x3bab0b82	0.0052198777
215	0xbc191af0	-0.009344801
216	0x3c749759	0.014928662
217	0xbc612e01	-0.013743878
218	0xbcbf54b8	-0.023355827
219	0x3cd7c1d1	0.026337536
220	0xbc86694f	-0.016407637
221	0xbbed08d9	-0.0072337207
222	0xbd1308a2	-0.035896905
223	0x3cc5d6b0	0.024150223
224	0x3cdff596	0.027338784
225	0x3c5776d6	0.013150891
226	0xbcce1dd8	-0.025160715
227	0xbd11df12	-0.035613127
228	0xbcf01533	-0.029306984
229	0x3cdc6e75	0.026908139
230	0x3c8debbe	0.017324325
231	0x3cf8c064	0.030365176
232	0x3c9adb91	0.018903526
233	0x3c15a139	0.009132677
234	0xb9b94397	-0.00035336308
235	0xbce0cee1	-0.027442398
236	0xbcfd43c4	-0.030916102
237	0xbd0a3eff	-0.033751484
238	0x3c72047c	0.014771577
239	0xbc9121bc	-0.017716281
240	0xbbedf6b7	-0.0072620767
241	0xbcaa1f0c	-0.020766757
242	0xbbd776ac	-0.006575426
243	0xbcd00e52	-0.025397453
244	0xbcc126e0	-0.023578107
245	0x3c441c12	0.011969583
246	0xbc2fb459	-0.010724151
247	0x3cb67d1c	0.022276454
248	0xbc3daa0e	-0.011576189
249	0xbcd8d84d	-0.026470328
250	0xbbd09fad	-0.006366691
251	0xbc8f4aff	-0.017491816
252	0xbc34dfec	-0.011039715
253	0xbd0cb4e0	-0.034352183
254	0x3ca5632b	0.020188889
255	0xbccdcce6	-0.025122117

fc1.bias f4 [256]
0	0x3c7caad3	0.015421587
1	0x3be73c16	0.0070567233
2	0x3d19e348	0.037570268
3	0xbd23fbac	-0.040034935
4	0x3d5c5dc4	0.05380036
5	0xbd454ddb	-0.048169952
6	0xbc51416a	-0.012771944
7	0xbd5b451a	-0.053532697
8	0xbc6ffbba	-0.014647419
9	0x3c9c1d63	0.019056981
10	0x3c34a809	0.011026391
11	0xbd1a0caf	-0.037609752
12	0x3c8623a1	0.016374411
13	0xbcfaceb8	-0.03061615
14	0x3c233828	0.009962119
15	0xbd238f79	-0.039931748
16	0xbd11a377	-0.035556283
17	0x3b39d0cf	0.002835322
18	0xbd3accad	-0.04560535
19	0x3c488e17	0.012240908
20	0xbd851fab	-0.06500181
21	0x3cb3756a	0.021906573
22	0xbb5cce2f	-0.003369223
23	0x3da885ba	0.08228631
24	0xbd847281	-0.064671524
25	0x3c896840	0.016773343
26	0x3d494887	0.049141433
27	0x3c42ddc1	0.011893691
28	0xbd292711	-0.041297022
29	0xbc96b8bd	-0.018398637
30	0xbd88d072	-0.06680383
31	0x3c172cae	0.009226961
32	0xbd02eb80	-0.03196287
33	0xbc927ef2	-0.017882798
34	0xbc8c79be	-0.017147895
35	0x3c781a1f	0.0151429465
36	0x3cc2a638	0.0237609
37	0x3a50774d	0.00079523475
38	0x3d0f8663	0.03504027
39	0xbd025654	-0.03182061
40	0x3c174bfb	0.009234424
41	0x3c98fd41	0.018675448
42	0xbd07f571	-0.033193056
43	0x3c65194e	0.013983084
44	0xbd607e6c	-0.054808065
45	0xbd2ed723	-0.04268564
46	0x3c2bba7e	0.010481475
47	0xbd88858d	-0.06666098
48	0xbd1711d1	-0.036882225
49	0xb9dec2e9	-0.0004248836
50	0xbd811fa9	-0.06304867
51	0xbd448943	-0.047982465
52	0xbc550a85	-0.013002996
53	0x3bf7608d	0.0075493515
54	0x3d1d7105	0.038437862
55	0xbd356914	-0.044289663
56	0x3d18338c	0.037158534
57	0x3be42c55	0.0069632926
58	0xbc11c2a8	-0.008896507
59	0xbcbf4016	-0.023345988
60	0xbd275803	-0.04085542
61	0xbc87ee1d	-0.016593033
62	0xbd07d927	-0.033166077
63	0xbc9eb422	-0.019373003
64	0xbc2918b5	-0.010320832
65	0x3bd8499a	0.006600571
66	0xbcd905d5	-0.026492039
67	0xbd2840e6	-0.041077517
68	0x3d197fcf	0.037475403
69	0xbb81179c	-0.003939582
70	0x39f9aa56	0.0004761989
71	0xbc9f5fb0	-0.019454807
72	0xbca68cc3	-0.020330792
73	0x3b9e35e6	0.0048282025
74	0x3c9991f5	0.018746356
75	0xbcbe2859	-0.023212599
76	0x3b605013	0.0034227415
77	0xbd1a1190	-0.037614405
78	0xbbf0d0fb	-0.007349131
79	0xbd10a847	-0.03531673
80	0x3c213778	0.009839885
81	0x3ca0d70d	0.019633794
82	0x3d14332e	0.03618162
83	0xbd40aa8a	-0.04703764
84	0xbd233194	-0.039842203
85	0xbcdbd6a0	-0.02683574
86	0xbc9cb4ff	-0.019129274
87	0x3b813ff1	0.00394439
88	0xbd1fc6f8	-0.03900811
89	0x3c01b1fc	0.00791597
90	0xbcb2a912	-0.021809135
91	0x3c5ad9bd	0.013357577
92	0xbc9a9093	-0.018867766
93	0xbd007458	-0.031360954
94	0xbb82f546	-0.003996524
95	0xbd244532	-0.040105052
96	0xbcc7bee1	-0.02438301
97	0x3c40565a	0.011739338
98	0xbc8681ae	-0.016419258
99	0xbb5f06f7	-0.003403125
100	0xbbb2631d	-0.005443944
101	0x3d1c51a7	0.038163807
102	0x3a7d3f70	0.0009660637
103	0xbcbc26b3	-0.022967672
104	0xbc89b1d0	-0.01680842
105	0xbcb06647	-0.021533145
106	0xbc687e7e	-0.014190314
107	0x3aeb9b07	0.0017975279
108	0x3cc66adf	0.024220882
109	0xbc2839ed	-0.010267717
110	0x3c8aeeef	0.016959636
111	0x3cd61c5d	0.026136572
112	0xbcefd7d3	-0.029277718
113	0xbaf0e2bf	-0.0018378122
114	0xbcbf503a	-0.023353685
115	0x3d7d74f7	0.061879124
116	0xbbd1a617	-0.0063979733
117	0xbd1b3f12	-0.037901945
118	0xbb9260f7	-0.0044671255
119	0xbbeab431	-0.007162594
120	0xbd1af875	-0.037834603
121	0x3ce85261	0.028359594
122	0xbd03a1e0	-0.032136798
123	0xbd042445	-0.03226115
124	0xbd3c6547	-0.045995023
125	0x3b0c44f5	0.0021403406
126	0xbc6233d6	-0.013806304
127	0xbc804cfb	-0.015661707
128	0x3cbdef90	0.023185521
129	0xbc5a86bf	-0.01333779
130	0xbd26d60c	-0.040731475
131	0x3b83779e	0.004012062
132	0x3cb4a366	0.02205057
133	0xbca7be66	-0.020476531
134	0xbc324c52	-0.010882454
135	0xbcf21030	-0.029548734
136	0xbcaa7693	-0.020808494
137	0xbcb45a21	-0.022015633
138	0x3b69b20e	0.0035659107
139	0x3ca2b013	0.01985935
140	0x3bb77c57	0.0055995393
141	0xbd06ca40	-0.032907724
142	0xbc80e4a6	-0.015734028
143	0x3d11e7ff	0.03562164
144	0x3c0e0a8a	0.008669505
145	0xbc9495e5	-0.018137882
146	0x3b5a45d4	0.003330578
147	0xbd5d9272	-0.05409474
148	0xbd829c03	-0.06377413
149	0xbcca18de	-0.02467006
150	0xbd1da7ac	-0.038489982
151	0x3d21e726	0.03952708
152	0x3c62c72a	0.01384143
153	0x3c2c308c	0.010509621
154	0x3b318dfe	0.002709269
155	0x3c23d783	0.0100001125
156	0xbbf98ff3	-0.007616037
157	0x3d30ef74	0.04319711
158	0xbcb1635b	-0.021653822
159	0xbd73c8b2	-0.05951757
160	0xbc971ac1	-0.018445374
161	0xbd0ade15	-0.0339032
162	0xbd046f10	-0.03233248
163	0xbca6ab56	-0.020345371
164	0xbd33b7de	-0.04387652
165	0xbd00674d	-0.031348515
166	0x3cec74b6	0.028864246
167	0xbcbd828c	-0.023133539
168	0xbc058c69	-0.008151152
169	0xbcbbc17f	-0.022919415
170	0xbc46498f	-0.012102499
171	0xbd20d7ef	-0.03926843
172	0xbd031385	-0.032001037
173	0xbbe03148	-0.0068418123
174	0x3ccce652	0.025012169
175	0x3d2c3ddd	0.042051185
176	0xbcd6a478	-0.026201472
177	0xbd2ac073	-0.04168744
178	0xbc4d868f	-0.012544288
179	0x3cb52565	0.022112558
180	0xbd1d1c18	-0.03835687
181	0xbd811f79	-0.06304831
182	0x3c020ecf	0.007938101
183	0xbc99f7a8	-0.01879485
184	0xbbc2e3ed	-0.005947581
185	0xbd482bba	-0.048869826
186	0xbc96a682	-0.018389944
187	0xbc0ac668	-0.008470155
188	0xbcd79e28	-0.026320532
189	0xbced5f31	-0.028976055
190	0x3b9f0792	0.0048531974
191	0xbd081915	-0.033227045
192	0x3d96b21b	0.0735819
193	0x3cc550e1	0.024086418
194	0x3d1806a8	0.037115723
195	0x3c827b69	0.015927987
196	0x3d21f049	0.039535794
197	0xbbb15b6d	-0.00541251
198	0x3c16c0da	0.009201253
199	0xbccd900f	-0.025093107
200	0xbcc6a107	-0.024246706
201	0xbc3d4fbc	-0.011554655
202	0xbc825347	-0.01590885
203	0xbcd91716	-0.026500266
204	0xbc00f331	-0.007870481
205	0xbd14c973	-0.03632493
206	0x3d050752	0.032477684
207	0xbc5fc0e3	-0.013656828
208	0xbcd305b6	-0.02575956
209	0xbd893913	-0.06700339
210	0xba4887d7	-0.0007649636
211	0xbc93ad36	-0.01802693
212	0xbce54aa2	-0.02798969
213	0xbccee9de	-0.025258001
214	0xbceed0e8	-0.029152349
215	0x3be963ea	0.0071225064
216	0x3c3b5f17	0.011436245
217	0x3cde53c5	0.027139554
218	0x3d0c837e	0.03430509
219	0x3a8dcd53	0.0010818638
220	0xbc78964e	-0.015172554
221	0xbc73704f	-0.014858319
222	0xbd30d874	-0.043175176
223	0xbc3e19e4	-0.0116028525
224	0xbcb3a469	-0.021928983
225	0xbc55a9f6	-0.01304101
226	0xbcbbb1fd	-0.02291202
227	0x3c3534aa	0.011059919
228	0xbd0e28e9	-0.034706984
229	0x391f7cc8	0.00015209906
230	0xbd1faa2f	-0.03898066
231	0xbbfabb1f	-0.007651701
232	0xbd37eef4	-0.044905618
233	0xbc85a5d5	-0.016314426
234	0x3aab5f33	0.0013074636
235	0xbc5cdf96	-0.013481041
236	0x3cac9f33	0.021072006
237	0xbd067a53	-0.0328315
238	0xbc68766b	-0.014188389
239	0xbbb45d1f	-0.005504265
240	0xbd03b86b	-0.032158297
241	0xbd35e3bb	-0.044406634
242	0xbc93d3b2	-0.01804528
243	0xbba539d8	-0.005042296
244	0xbd2ebfbc	-0.04266332
245	0xbc3858d8	-0.011251651
246	0xbc9e4fa7	-0.01932509
247	0xbb96d313	-0.0046027987
248	0x3ca6633a	0.020310987
249	0xbb83dea7	-0.004024345
250	0xbc1b9856	-0.009496769
251	0xbc9023a1	-0.017595114
252	0x3c87371a	0.016505767
253	0x3bf15eb4	0.007366026
254	0xbd222e1e	-0.039594762
255	0xbc85b4f9	-0.016321646

fc2.weight f4 [2, 256]
0	0x3d488fbe	0.04896521
1	0xbadbcb43	-0.0016768951
2	0xbcf01ada	-0.029309679
3	0x3ecab193	0.39588603
4	0xbe2e6d3c	-0.17033857
5	0x3ee7362e	0.45158523
6	0x3d793fe9	0.060851965
7	0x3d86ad57	0.06576031
8	0x3d279ada	0.040919162
9	0x3d6231f6	0.055223428
10	0xbd4a9bad	-0.04946487
11	0x3e94b558	0.29044604
12	0xbd88a685	-0.06672386
13	0x3ca2b2a9	0.019860582
14	0x3d577329	0.05260006
15	0xbd17ca4d	-0.037058163
16	0xbdd0ff54	-0.1020495
17	0xbe4368de	-0.19082972
18	0x3ef39b37	0.47579357
19	0x3f055a68	0.52091074
20	0x3ee5e1f1	0.44898942
21	0x3bdb9434	0.006701017
22	0x3b631d89	0.0034655055
23	0xbd0942eb	-0.033511084
24	0xbd217f34	-0.03942795
25	0x3c2f3a77	0.010695091
26	0xbd3aaefa	-0.045577027
27	0xbcff7e71	-0.031188222
28	0xbd4544d8	-0.048161358
29	0xbcce60bd	-0.025192613
30	0x3ecbad65	0.39780727
31	0xbda4b7e9	-0.080428906
32	0xbe8b119b	-0.2716187
33	0x3b907e4b	0.0044095865
34	0xbdc5ba88	-0.09654719
35	0xbbe4a0e7	-0.006977189
36	0xbd545356	-0.051837288
37	0x3cb36f7f	0.021903751
38	0x3f1536bc	0.58286643
39	0x3f0885e1	0.53329283
40	0x3d2dd162	0.04243601
41	0x3ba7f1c4	0.0051252563
42	0x3eaa6032	0.33276516
43	0x3c03783e	0.008024273
44	0x3eddf3d6	0.43350095
45	0x3d6b3200	0.05742073
46	0xbc7a6eeb	-0.015285234
47	0x3eaf4b4f	0.34237143
48	0x3ca4b3c5	0.020105252
49	0xbd8bf590	-0.06833947
50	0x3ea81396	0.32827443
51	0x3edf256f	0.43583247
52	0x3d274f87	0.040847328
53	0x3d24b51f	0.040211793
54	0xbdc490bc	-0.095979184
55	0x3f0bc039	0.54590183
56	0xbd9b9908	-0.07597548
57	0xbd684eea	-0.056715883
58	0xbc6954ed	-0.014241439
59	0xbc7e6680	-0.015527368
60	0x3eacbc19	0.33737257
61	0xbd767171	-0.06016678
62	0xbd08e290	-0.03341919
63	0xbd4f0e7e	-0.05055093
64	0x3d4dc65d	0.050238002
65	0xbcaf89f1	-0.02142808
66	0x3ec60564	0.38675988
67	0xbdc8f685	-0.09812645
68	0xbc0d2f9d	-0.008617309
69	0x3ef77b5c	0.48336303
70	0xbde0515b	-0.10953017
71	0x3ee3a02b	0.44458136
72	0x3ebd38ca	0.3695739
73	0x3cc1054b	0.023562094
74	0xbce4e9f6	-0.027943593
75	0x3b98d149	0.0046636206
76	0xbdbe8a2b	-0.09303697
77	0x3ef41820	0.47674656
78	0x3cb0369e	0.021510419
79	0x3f00dc4e	0.5033616
80	0x3f1506a5	0.58213264
81	0x3c6e652d	0.014550489
82	0xbd78114b	-0.060563367
83	0x3f124a47	0.5714459
84	0x3cf284d5	0.029604355
85	0x3f3bfbd4	0.73431134
86	0xb9c90162	-0.00038338738
87	0x3c4d1fad	0.012519759
88	0x3f247197	0.64235824
89	0xbd3bbacb	-0.045832437
90	0xbe9d63d6	-0.3074023
91	0x3f34af5e	0.7058009
92	0x3d333a80	0.04375696
93	0xbcb1c24e	-0.021699097
94	0xbd1eb565	-0.03874721
95	0x3daafab3	0.08348598
96	0x3eab207f	0.3342323
97	0x3e4467b5	0.19180186
98	0xbbf16a03	-0.007367374
99	0x3f35d782	0.71031964
100	0xbd584c70	-0.05280727
101	0x3ae6bb16	0.0017603363
102	0xbc4de4d5	-0.012566765
103	0x3ec3838a	0.38186294
104	0x3d4a36ff	0.049368855
105	0x3ea0f40f	0.31436202
106	0xbd917990	-0.07103264
107	0x3d364b2c	0.044505283
108	0x3cc3d8f0	0.023907155
109	0x3f14b903	0.58094805
110	0x3ec2506a	0.37951976
111	0x3cde1ab6	0.027112346
112	0xbd3d888f	-0.04627281
113	0x3d415dd8	0.047208637
114	0x3eccd3fe	0.40005487
115	0xbcec5d42	-0.028853063
116	0x3d2f48f9	0.0427942
117	0x3eb6d8d0	0.3571229
118	0xbce2732c	-0.027642809
119	0x3ee61686	0.4493906
120	0xbcb56cfa	-0.02214669
121	0x3ebfbe9b	0.37450108
122	0xbea449f9	-0.32087687
123	0xbd340d5d	-0.043958057
124	0x3a621874	0.00086248596
125	0xbd741401	-0.05958939
126	0x3d72d95a	0.059289314
127	0xbd337ec9	-0.043822084
128	0x3f26d398	0.65166616
129	0x3cf13288	0.02944304
130	0x3d3737fa	0.044731118
131	0xbd394837	-0.045234885
132	0x3cba14ef	0.02271506
133	0x3ed5d369	0.41762856
134	0x3ed8e3c2	0.42361265
135	0x3eb1b6ee	0.34709877
136	0xbb841186	-0.0040304093
137	0x3ed5ccf6	0.41757935
138	0x3f132fa6	0.5749458
139	0xbd4825ad	-0.048864055
140	0x3edbcc3c	0.42929256
141	0x3e9acc0b	0.30233797
142	0x3edddd81	0.43333057
143	0xbd9d6d7e	-0.076868996
144	0x3ee70390	0.45119905
145	0x3eaf4902	0.34235388
146	0xbe88b8d9	-0.26703528
147	0x3e8cc482	0.27493674
148	0x3f0c907c	0.54907966
149	0x3eb63b28	0.35592008
150	0xbd3495a0	-0.044088006
151	0xbcd195c0	-0.025584102
152	0x3ee3f1da	0.44520456
153	0x3ee5615f	0.4480085
154	0xbd922e36	-0.0713772
155	0x3ef5c7a5	0.4800388
156	0xbbaa7922	-0.0052024284
157	0xbd9fd73d	-0.07804725
158	0x3d310d2a	0.043225445
159	0x3db52908	0.08845717
160	0x3d4e4079	0.050354455
161	0x3dba8306	0.09107022
162	0x3d520cdf	0.051281806
163	0xbce33a89	-0.027737873
164	0x3d2e9663	0.04262389
165	0x3cfd367c	0.03090977
166	0x3f4073ae	0.75176513
167	0xbbb39930	-0.005480908
168	0xbbcfe08a	-0.006343906
169	0x3dac6119	0.084169574
170	0x3ee303b9	0.44338778
171	0x3f0df0a6	0.55445325
172	0x3d0fe780	0.035132885
173	0x3ecc1f10	0.3986745
174	0xbd4827da	-0.04886613
175	0xbd95c6dd	-0.07313321
176	0x3bd8cc36	0.0066161407
177	0x3f2cddbf	0.6752586
178	0x3ecee30f	0.40407607
179	0x3f047a98	0.51749563
180	0xbddc7d48	-0.10766083
181	0x3e6679e7	0.2250744
182	0x3e8d21cb	0.27564844
183	0x3d674ffc	0.056472763
184	0x3b4d1fe7	0.0031299533
185	0x3d991491	0.07474626
186	0x3f25f6ed	0.64829904
187	0xbd474cd0	-0.04865724
188	0x3f099ef5	0.53758174
189	0xbd180ead	-0.03712337
190	0xbeaffff5	-0.34374967
191	0xbdad6b18	-0.08467692
192	0xbd2d28d7	-0.042275276
193	0xbcf430e9	-0.029808478
194	0xbdddc9f7	-0.10829537
195	0xbe76ed2d	-0.24113913
196	0xbdabeed5	-0.08395163
197	0xbde50fb4	-0.11184636
198	0xbd39f0f2	-0.0453958
199	0x3ebcd864	0.36883843
200	0x3f19e623	0.60116786
201	0x3bfda599	0.007740688
202	0xbd0d9a39	-0.034570906
203	0x3c12f9c4	0.008970682
204	0xbcccd342	-0.02500308
205	0xbc8cd871	-0.017193051
206	0xbcfea8ee	-0.031086411
207	0xbce1e3b3	-0.027574396
208	0x3ef79e47	0.48362944
209	0xbd4cf028	-0.05003372
210	0xbbb36c76	-0.005475576
211	0x3f05df58	0.5229392
212	0xbcac8ce9	-0.021063285
213	0x3ef977b5	0.48724142
214	0x3f2438fa	0.6414944
215	0x3f035c63	0.51312846
216	0xbc3dbfe6	-0.011581397
217	0xbd1316b9	-0.035910342
218	0xbcfd90ec	-0.030952893
219	0x3f1ec0d8	0.62013006
220	0x3c204d49	0.009784051
221	0x3d10fd50	0.035397828
222	0x3ebfa4c9	0.3743041
223	0xbeb7bad2	-0.3588472
224	0x3d00c1ae	0.031434707
225	0x3edec734	0.43511355
226	0x3cb40731	0.021976085
227	0x3d3cc02e	0.046081714
228	0x3ee20df2	0.44151264
229	0x3e073635	0.13204272
230	0x3e8d051c	0.2754296
231	0xbce75220	-0.028237402
232	0x3f2d81a7	0.6777596
233	0xbbd511ed	-0.006502381
234	0xbe1b092b	-0.15140216
235	0x3ece685a	0.4031399
236	0x3c36b618	0.011151813
237	0x3f0f0100	0.558609
238	0x3f00db5b	0.5033471
239	0xbd5ddcbb	-0.054165583
240	0xbc2047c5	-0.009782736
241	0xbd7118aa	-0.058861412
242	0x3eeab3aa	0.45840198
243	0x3f1c1954	0.6097615
244	0x3f102b03	0.5631563
245	0x3e1a0ee8	0.15044749
246	0x3ebf3ed1	0.37352613
247	0xbcead1bc	-0.028664462
248	0x3cbcc3cd	0.023042584
249	0xbd0e5aea	-0.03475467
250	0x3ef2e854	0.47442877
251	0xbd4e6127	-0.05038562
252	0xbcf69f53	-0.030105269
253	0x3bd81146	0.006593856
254	0x3ecb6ab2	0.3972984
255	0x3c7f1d40	0.015570939

fc2.bias f4 [2]
0	0xbf35bc03	-0.7099001
1	0x3f2ba273	0.6704475
